Latest_model.pth (torch, 597587 bytes, 36 tensors)

block1.0.weight f4 [32, 3, 3, 3]
000000 a1 a1 9c bc 97 db eb bd b8 a2 22 3e 01 35 10 be
       -0.01912004 -0.11516493 0.15882385 -0.1408272
000010 0c 88 28 3d 5d a4 ad bd 33 ba ae 3c 6e 44 39 3c
       0.04114537 -0.084786154 0.021329021 0.011307819
000020 0b 9c d4 3d f2 a8 3a 3e b3 9b d7 3d a0 69 6d bd
       0.10381325 0.1822851 0.10527744 -0.05796206
000030 d4 ea a0 bb db dd 92 bd ef a0 f0 bc d9 ad 4e 3d
       -0.004910806 -0.07171222 -0.029373614 0.050458763
000040 c6 39 29 3d b8 a1 fa 3d 91 b5 86 3d 0f 52 0d 3e
       0.041314863 0.12237877 0.065776 0.13800834
000050 f8 2c 1e be a1 ef 3e be 00 69 d3 bd ae c8 27 be
       -0.15446842 -0.18646099 -0.103227615 -0.16385147
000060 20 d7 a7 bc aa 3a be bd fe 77 c4 bd 84 7d 08 3d
       -0.020488322 -0.09288533 -0.09593199 0.033322826
000070 9d 09 91 bd a4 ea 34 be 2a 65 3c 3e 7c 3e af bd
       -0.07081912 -0.17667633 0.18397966 -0.0855684
000080 e5 40 7f bd b9 00 50 3e 92 8a 6e bd 13 6b 02 3e
       -0.062317748 0.20312776 -0.05823762 0.12736158
000090 33 22 35 be 63 4f 8c bd 53 3e 81 bc fa 62 d9 bd
       -0.17688827 -0.06851079 -0.015776789 -0.106145814
0000a0 15 44 17 bd 13 7e 35 be f7 06 eb 3d 35 21 55 3d
       -0.036930162 -0.17723875 0.11475938 0.05203362
0000b0 cb e4 35 3d aa c1 dc 3d 11 46 8e 3d 23 3b 99 bd
       0.044407647 0.10779126 0.06946958 -0.074819826
0000c0 1d 95 39 be 0b 2a fd ba 3e fc 14 3e 47 b5 32 3e
       -0.18123288 -0.0019314898 0.14549348 0.17451964
0000d0 16 33 1c bd 6d ec bc 3d a6 d3 1e be 68 17 be 3d
       -0.038134657 0.09224782 -0.15510425 0.09281808
0000e0 af 4b bd bd 52 07 1b be 70 5d 5c bd de 78 3d 3d
       -0.09242951 -0.15139511 -0.053800046 0.046257846
0000f0 1a e6 df bd 18 bc 23 be 9a d4 50 bd 35 f0 fb bd
       -0.1093256 -0.15989721 -0.050984003 -0.12301675
000100 98 73 41 be 5c e0 0c be fe c1 18 3e 8a 9e c6 3b
       -0.18891752 -0.13757461 0.14917752 0.00606138
000110 19 74 f3 bb 08 43 39 bd 97 26 d0 bb ee 72 02 3e
       -0.0074296114 -0.04522994 -0.0063522565 0.12739155
000120 eb db 93 bd a5 df 1d be ed f6 32 3e b2 74 19 3e
       -0.072196804 -0.15417345 0.17477007 0.14985922
000130 a0 86 4d 3e 00 98 4d 3c 37 4b d2 3d a1 37 ba 3d
       0.20070887 0.012548447 0.10268252 0.090926416
000140 41 8e e7 bd 1d 86 08 bd f4 b3 5a 3d 91 c9 5d 3d
       -0.1130643 -0.033331025 0.053394273 0.054147307
000150 8b 38 b2 bc 67 0d b4 3c 0d d2 e6 bc 3a 9c d5 bd
       -0.021755477 0.021979047 -0.028176332 -0.104301885
000160 e9 99 83 3d c4 4d 20 3e 5a 65 09 3d 19 15 0f bc
       0.064258404 0.15654665 0.033543922 -0.008733057
000170 b0 82 29 be 16 0f 03 bd af dd 50 be ea 12 5f be
       -0.1655376 -0.03199681 -0.20397066 -0.21784559
000180 21 cf b5 bd a0 1f c5 3d 12 a1 09 be b4 6c 0a be
       -0.08877397 0.096251726 -0.1344035 -0.1351803
000190 ca b6 1b 3e d3 1f a5 3d ec bb 45 3d 35 0a 28 3e
       0.15206447 0.080627106 0.04827492 0.16410144
0001a0 6a a2 4a 3d 1c 97 87 3d 04 8a b1 bd dc 35 d8 3d
       0.049471296 0.06620619 -0.086689025 0.10557148
0001b0 90 6f 39 bd 46 93 ff 3d 02 b5 fa bd 77 bb e2 3b
       -0.04527241 0.12479262 -0.12241556 0.00691932
0001c0 27 e9 45 3b b8 a5 c4 3b 7c 75 9d 3c a5 0e 70 3d
       0.0030198784 0.0060012005 0.01922106 0.058607716
0001d0 a3 00 a8 bb 28 d9 05 3e b7 f8 42 bd 11 c2 a0 3d
       -0.005127029 0.1307112 -0.047600474 0.07849515
0001e0 96 ab bf 3d 67 1b 02 3d 4f 7e 2c be e8 51 c6 bd
       0.09358899 0.031764414 -0.16845058 -0.09683591
0001f0 25 47 53 be 72 93 17 3e 73 f3 11 3e 9d e7 bb 3d
       -0.20632608 0.1480234 0.14253025 0.09175036
000200 56 88 e6 3d 6d 17 52 be 71 01 48 bd 7e 9f 41 3d
       0.11256473 -0.20516749 -0.0488295 0.047271244
000210 d4 7d 8a bd 72 b2 31 bd 09 c1 84 3c 47 5c 3e bd
       -0.06762281 -0.04338307 0.016205328 -0.04647472
000220 e8 25 d3 bd 5f 7f ae bd d8 1f 7a 3c ee 1a 0a 3e
       -0.103099644 -0.08520388 0.015266381 0.13486835
000230 a7 83 30 be e8 bd 8d 3d db 91 01 bd 31 dd 69 3d
       -0.17237721 0.06920987 -0.03163324 0.05709571
000240 91 02 17 3e 9e c5 d6 3c b1 40 34 3d ea 5d 04 be
       0.14747073 0.026217278 0.044007007 -0.1292645
000250 33 c8 92 3d 96 02 65 3d 39 c8 7f bd b4 a9 9b 3d
       0.07167091 0.05591067 -0.062446807 0.07600728
000260 ce 67 df bd 3a 40 fb bc 4e 6c d1 bd c6 8d f7 3d
       -0.10908471 -0.030670274 -0.102257356 0.12087588
000270 e2 e8 e0 bc 7d e4 5a be 56 78 69 bd 0a 78 cc bd
       -0.027454797 -0.21376224 -0.056999527 -0.09983833
000280 65 77 7f 3d 0a d4 02 3c 90 95 a2 bd d9 fc c2 bd
       0.062369723 0.007985124 -0.07938683 -0.09520883
000290 35 9a ae bd 47 de 8f bc b6 e6 92 3d ba ec 02 3c
       -0.085255064 -0.017562045 0.07172911 0.00799101
0002a0 86 26 f7 3c a9 6f 23 3d 35 3a cd bd e7 3c 0c be
       0.030169737 0.03990141 -0.10020868 -0.13695107
0002b0 fb 8e 83 bd e8 fc 1d be ea 4d 36 3e 7c 7d f5 bd
       -0.06423756 -0.15428507 0.1780316 -0.11986825
0002c0 43 40 e3 bd dc 16 25 3e 8a 53 ba bd 18 15 3e bd
       -0.11096241 0.16122001 -0.09097965 -0.046406835
0002d0 22 63 12 be cd 23 70 be fb ae 27 bd 10 33 2b be
       -0.14295629 -0.23451157 -0.04093836 -0.16718698
0002e0 a4 b0 fd bd eb 55 28 bd dd f3 f9 bd 09 d2 94 bd
       -0.12387207 -0.041097563 -0.12204716 -0.072666235
0002f0 98 cf 4a 3e 04 a3 df 3d b3 f6 30 be b7 35 66 bd
       0.19805753 0.10919765 -0.17281608 -0.05620357
000300 79 0e c4 bd 26 4a d3 3c 1b ef b6 3c c8 cd a6 3d
       -0.09573073 0.025792193 0.022330811 0.081447184
000310 10 e8 42 3e e5 58 10 3e 92 a4 29 be 14 1d 88 3d
       0.19033837 0.1409641 -0.16566685 0.06646171
000320 bb 5e 4a bd 82 37 28 3d 6d 8d 82 bd 49 76 54 bd
       -0.04940675 0.04106856 -0.06374631 -0.051870618
000330 cd 03 81 bd 23 2c ec bc b7 c6 10 be 3a 81 01 be
       -0.06299553 -0.02882964 -0.14138304 -0.12646952
000340 c9 6c 7f bc 1a 98 33 3e 62 27 0e 3e 6d 3d 34 be
       -0.015589901 0.17538491 0.13882211 -0.17601557
000350 e0 3a 0b 3e c1 30 d4 3c f4 51 b4 b9 da 99 8c 3d
       0.13596678 0.025902154 -0.00034393335 0.06865282
000360 13 0e f1 bd ab 81 b3 3c e4 38 9e bd 2d e8 ed bb
       -0.117702626 0.021912416 -0.07725695 -0.0072603435
000370 1b c2 eb 3d 0c 34 f4 3d dc 99 11 be e9 01 4d bd
       0.11511632 0.1192399 -0.14218849 -0.05005065
000380 d2 bc 57 3a 40 5d c2 bd f7 51 62 bc 46 a6 54 3d
       0.00082297355 -0.09490442 -0.013813487 0.051916383
000390 95 ad 39 3d 22 17 42 bc e2 c9 4f be 2f 5c 73 bd
       0.045331556 -0.011846336 -0.20291856 -0.059414085
0003a0 27 39 59 bd 12 96 83 bd 3d 38 9b bc 43 cf ef bc
       -0.05303302 -0.06425108 -0.018947715 -0.029273635
0003b0 24 41 31 3e 23 02 fa 3d c4 d9 2f bd 4a a7 5a 3e
       0.17310005 0.12207439 -0.042932287 0.21352878
0003c0 c1 64 a8 bd a8 56 86 3b d2 87 cf bd 91 12 3b bd
       -0.08222342 0.0040996857 -0.101333275 -0.045672003
0003d0 25 30 d5 3c 48 82 ec 3d c7 04 74 3c 9b 37 2d bd
       0.026023934 0.11548287 0.014893717 -0.042289358
0003e0 bc 38 fc bd 75 7e df bd f2 5f ff bc d9 89 78 bc
       -0.12315509 -0.10912792 -0.03117368 -0.015169584
0003f0 fa 88 3f 3e 7c ac 2b be 95 6b 82 3d bf 2d 10 3d
       0.18704596 -0.16765016 0.06368176 0.035199877

block1.0.bias f4 [32]
000000 22 2e 04 3e 44 50 1d 3e da bd 00 be bf aa 3c be
       0.12908223 0.1536265 -0.12572423 -0.1842451
000010 26 e5 2d 3e 03 b3 ad 3d 86 8b bf 3d fd ad 8d 3d
       0.16981944 0.084814094 0.09352784 0.06917951
000020 c5 cc 13 3e e0 aa 61 3d fa 04 23 be 20 4f e1 bc
       0.14433582 0.0550946 -0.15919867 -0.02750355
000030 33 10 38 be c6 6b 42 3d 59 6a 08 be 8c e6 f9 3c
       -0.1797493 0.047466062 -0.13321818 0.030505441
000040 bf 19 da 3d 5a 41 4f 3e 0e bf f6 bc b3 04 d1 3d
       0.10649442 0.20239773 -0.030120399 0.102059744
000050 8c d0 94 3b f2 53 20 be ed c8 e7 bc 2c 74 d3 3d
       0.0045414623 -0.15657023 -0.028294051 0.103248924
000060 2a 89 2e bd 89 5b 02 3d 35 e0 6d bd 75 9c 53 bd
       -0.04261128 0.031825576 -0.05807515 -0.05166288
000070 82 62 11 3d 0b 64 41 be 10 22 19 be 32 e9 3b 3e
       0.035494335 -0.1888582 -0.149544 0.18350676

block1.1.weight f4 [32]
000000 b8 5c 78 3f 55 72 83 3f 08 ab 7c 3f 90 2c 84 3f
       0.9701648 1.0269266 0.9869847 1.0326099
000010 f4 af 81 3f f0 8b 73 3f 91 fb 79 3f c4 85 7d 3f
       1.0131822 0.951354 0.97649485 0.99032235
000020 aa c1 7a 3f cd 8e 72 3f a1 45 81 3f f8 6d 84 3f
       0.9795176 0.94749147 1.0099374 1.034606
000030 50 62 74 3f d3 f6 80 3f ef ae 83 3f e5 f4 83 3f
       0.9546251 1.0075325 1.028776 1.0309111
000040 d5 ef 80 3f 24 2b 86 3f ef 76 7a 3f cf e7 72 3f
       1.0073191 1.0481915 0.9783773 0.9488496
000050 bc dd 7e 3f f3 47 83 3f 4a 87 77 3f 8c 2e 84 3f
       0.9955709 1.0256332 0.9669081 1.0326705
000060 30 1d 80 3f 55 26 82 3f 03 a8 7b 3f 91 3c 73 3f
       1.0008907 1.0167948 0.9830324 0.9501429
000070 ff 4a 7c 3f b4 fc 74 3f a9 e7 83 3f 97 f2 74 3f
       0.98551935 0.95698094 1.0305072 0.9568266

block1.1.bias f4 [32]
000000 de 9b e8 bb 2d 65 0b 3e 02 df 56 bc 60 6b 8f 3c
       -0.007098659 0.13612814 -0.013114693 0.017507255
000010 1f df 94 3d ed e0 46 bd 64 ec 2b bc 2a 10 17 3d
       0.072691195 -0.04855435 -0.010493372 0.03688065
000020 2f 6a 0f 3c b7 9e 64 bd df 7c 66 3b ae 66 92 bc
       0.0087533435 -0.055815425 0.0035169644 -0.017871227
000030 8e 1a 2d bd 26 9a 76 3c 26 f5 a5 3d db 31 28 3e
       -0.042261653 0.0150514 0.08103399 0.16425268
000040 e5 6c 17 3d 10 6b cd 3d bf 01 01 3d 6a 5e 85 3c
       0.036969084 0.10030186 0.031495806 0.016280372
000050 0a bb d7 bc 35 f2 89 3d 4e f1 b5 bb 86 8d 34 bc
       -0.026334304 0.067356504 -0.0055524474 -0.01102007
000060 ee ba 7d 3d 73 1f 22 3c 5f d3 7b bc 93 1e d1 bc
       0.06194585 0.009895193 -0.015370219 -0.025527274
000070 40 3f 4f 3d a1 38 45 bc 89 73 a9 3d c9 27 c9 bc
       0.05059743 -0.012037427 0.0827399 -0.024555104

block1.1.running_mean f4 [32]
000000 31 05 a8 bc b5 3b 34 3e 0e 2a d4 be 13 80 48 be
       -0.020510288 0.17600901 -0.41438335 -0.19580106
000010 f1 19 4d 3e 6d 2b e3 bd 83 c5 06 bf a8 11 ec 3d
       0.20029427 -0.11092267 -0.5264513 0.11526805
000020 0b b9 ba 3b ab 10 43 be b1 7c 70 be f9 b9 81 bd
       0.0056983284 -0.19049327 -0.23485066 -0.063342996
000030 1d a2 05 bf b5 68 05 3d 9e 5d af bd 90 73 a0 3d
       -0.5220049 0.03257056 -0.08562778 0.07834542
000040 01 97 1c 3e bb 6b 84 3e 9f e8 2f 3c bf 33 86 3e
       0.15291978 0.25863442 0.010736614 0.26211354
000050 48 b4 a5 bd 88 c7 10 be ef 48 6e bf 97 39 e4 3c
       -0.080910265 -0.14138615 -0.9308004 0.027859492
000060 b7 13 ac bc 81 bc 70 bd f5 b1 2d be c8 50 41 be
       -0.021005495 -0.05877352 -0.16962416 -0.18878472
000070 94 65 d7 3d b7 72 68 bd 01 91 bf bd 4b 31 63 3f
       0.10517421 -0.056750026 -0.09353829 0.8874709

block1.1.running_var f4 [32]
000000 12 e0 3e 3c d9 5b 8d 3c 4c 81 da 3c 6e 89 41 3b
       0.011650102 0.01725571 0.026672982 0.0029531377
000010 03 37 9f 3b 96 37 36 3c 75 f7 fc 3d 82 ac ca 3b
       0.004858853 0.011121651 0.12351886 0.0061851153
000020 16 52 41 3c e4 fc a5 3c bb d6 4b 3c 7b 98 42 3b
       0.011799356 0.02026219 0.012441332 0.0029692936
000030 43 74 01 3d 22 a8 b5 3b 5f f2 07 3c 12 d5 4d 3c
       0.031605016 0.0055437246 0.008297532 0.012563007
000040 7d 89 30 3c 81 48 07 3c fa 26 2d 3c 93 04 7a 3c
       0.010774967 0.008257032 0.010568375 0.01525988
000050 89 57 65 3c e7 7e b0 3c 53 35 7d 3e fc 8b 11 3c
       0.013997921 0.021544887 0.24727373 0.0088834725
000060 75 6a 00 3c 5f 5c d2 3b e2 63 0b 3c b1 4a ee 3b
       0.007837881 0.006419703 0.008507701 0.0072720875
000070 4a 73 dc 3b 1a 36 0b 3c 6e fc bf 3c ec df 0c 3e
       0.0067276107 0.008496786 0.023435798 0.13757294

block1.3.weight f4 [32, 32, 3, 3]
000000 1f a2 a6 bc 58 69 b3 3c b5 06 10 bc ea e4 a5 3b
       -0.020340977 0.021900818 -0.008790662 0.005062689
000010 0b 19 e6 bb 2a 92 b1 3b 6b 71 f6 bc 84 06 50 3c
       -0.0070220283 0.0054190354 -0.030083379 0.012696866
000020 99 c8 6b bc e8 2b 4e 3d 1a 12 2c bd 68 a5 89 bc
       -0.014391088 0.05033484 -0.04200945 -0.016802505
000030 b1 97 8a 3d e1 c5 49 3d d2 9c 20 3d 90 0f 0d bb
       0.06767214 0.049260978 0.039212056 -0.0021524169
000040 36 f1 8f 3d 7c a7 d6 3c da a0 64 bd 8f e2 22 bc
       0.07028429 0.02620291 -0.055817463 -0.009941711
000050 52 2a b6 3c 64 4d 6a 3d 1b 08 9f bc 83 97 3e 3d
       0.022236977 0.05720271 -0.019413045 0.04653121
000060 a3 cd 61 3d f1 10 6a 3b 5f 4f 05 bd ce 08 a8 bc
       0.05512775 0.0035715664 -0.032546397 -0.02051201
000070 e0 a1 d8 bc 94 a7 a0 bd e0 97 fd bc 2e cc 84 39
       -0.026444376 -0.07844463 -0.030956209 0.00025329128
000080 6f fe 43 bd 11 ff 58 3d 67 06 90 3c a7 aa 0a 3c
       -0.04785007 0.052977625 0.017581178 0.008463538
000090 cb 7e 2c bd ba f5 c1 3c bb f6 19 bd 9d 99 28 3d
       -0.042113107 0.023676742 -0.037588816 0.041162122
0000a0 09 fd 2e 3c da 6d 9a 3c e7 e3 27 bd 5f 1b 57 bd
       0.0106804455 0.01885121 -0.04098883 -0.052516337
0000b0 8e 15 cf bb 98 bc 54 bd 5e 81 3f bd ce f0 4f bd
       -0.006319708 -0.05193767 -0.046754234 -0.05076676
0000c0 4c 2e 2e 3d 41 ff f3 3c 2a 3a 93 bb 23 e8 bf 3b
       0.04252462 0.0297848 -0.0044930177 0.0058565303
0000d0 5f 56 7a 3d ad 45 e5 bc a0 28 92 bc 6c a4 3d bb
       0.061117526 -0.027987326 -0.017841637 -0.0028937114
0000e0 9d 6c bf bc 00 2b 07 3c 58 77 c5 b9 df dd 51 3d
       -0.02336722 0.008249998 -0.00037663686 0.051236983
0000f0 ec 68 97 3c 48 07 7b 3d c9 f2 1a bd 3c 72 18 bb
       0.018482648 0.06128624 -0.037829194 -0.0023261448
000100 bf bd 5d bd f5 ae 00 3d 8f 97 20 3d bd f1 08 bd
       -0.054136034 0.031416852 0.039207038 -0.033433665
000110 b4 a4 d8 ba 57 ce 98 bc d3 5e 87 bd ad 48 2a bd
       -0.0016528578 -0.018653078 -0.06609883 -0.041573215
000120 de 95 b3 bc ab 4d d8 bc 95 43 3c bd 4a 1d 79 3d
       -0.021922048 -0.026404222 -0.04596289 0.060818948
000130 0f 44 08 bd 2d 6e 11 bd 25 9a b0 bc bb 71 84 3d
       -0.03326803 -0.035505462 -0.021557877 0.06467005
000140 62 31 0c 3d bc 79 56 3d ea c4 ec bc be 12 25 bd
       0.034226783 0.05236219 -0.02890249 -0.040301077
000150 ec b9 39 bc c8 aa a5 bc cc 61 6a 3b f4 ae d5 3c
       -0.011335831 -0.020223036 0.0035763858 0.0260844
000160 88 cc 55 3c 6f 9a 1c 3d ff 22 63 3d d4 58 35 bd
       0.013049252 0.038233217 0.055453297 -0.044274166
000170 e7 75 8c 3c a5 04 66 bb 2a b7 34 bd 03 5b de bc
       0.017146064 -0.0035097983 -0.04411999 -0.027143007
000180 45 85 86 3d f2 7b 85 bc 37 97 b3 ba 6d 46 ad 3c
       0.06568388 -0.016294453 -0.0013701682 0.021151746
000190 63 42 85 bc c6 15 0e bd 22 a4 51 bc 59 b9 2b bd
       -0.016267007 -0.034688734 -0.01279548 -0.04192481
0001a0 0c 81 f7 bc eb b3 22 bd c0 2b 72 3b 75 3f 0d bb
       -0.030212902 -0.039722364 0.0036952347 -0.0021552716
0001b0 b8 36 39 bd 1e b9 ee bc 1b e5 d3 bc 80 90 8a ba
       -0.0452182 -0.029141005 -0.025866082 -0.0010571629
0001c0 53 cc ee bc 02 d4 1f bd b9 f4 79 3b 54 d8 07 bd
       -0.029150164 -0.039020546 0.003814025 -0.03316529
0001d0 23 27 05 3d 44 aa 53 bd 64 a8 fd bc 1d 06 32 3d
       0.032508027 -0.05167605 -0.030964084 0.04346286
0001e0 65 67 17 3d ed a7 1d 3d 51 20 3a bd 0f fa 87 3d
       0.03696384 0.038490225 -0.045440976 0.06639492
0001f0 1f 78 c2 bc a0 a1 16 bd 08 36 01 bc 78 12 88 bd
       -0.023738919 -0.03677523 -0.007886417 -0.06644148
000200 0b 06 07 bd fa 5c 83 3c 2a ee e5 3c 55 12 e2 bb
       -0.032964747 0.016035546 0.028067667 -0.006899158
000210 17 b8 7c bd d9 6a 2a bd a2 9d a3 bc ae 73 0d bd
       -0.061699 -0.041605804 -0.019972626 -0.03453415
000220 c6 ee 33 bd 35 cf c4 bc 95 a8 28 bd 24 36 3b bd
       -0.043928884 -0.024024585 -0.041176397 -0.04570593
000230 83 e9 a9 3c c5 2b fa bc ca af 2b 3c ff b0 54 bd
       0.02074123 -0.030538449 0.010478923 -0.05192661
000240 8f 02 2e bd 67 5b 51 3d 15 98 02 3c b8 30 c5 3c
       -0.04248291 0.05111256 0.0079708295 0.024071082
000250 2f 1a ae 3c 73 3f 2e 3d bc 57 c6 3c 37 38 35 3d
       0.02125272 0.04254098 0.024211757 0.044243064
000260 0a 42 28 bb 69 1a dc 3c 4d 7c b5 3c bf df 39 bd
       -0.0025674128 0.026868062 0.022153998 -0.045379397
000270 5b d4 65 3d 6d ad 90 3d 60 e1 31 3d 68 79 4c 3b
       0.05611072 0.07064328 0.043427825 0.0031200293
000280 8d c6 0f 3d 04 b9 11 3d e1 c2 c9 bc 80 06 00 bd
       0.035101462 0.035576835 -0.024629058 -0.0312562
000290 f3 86 82 bd 3d 1f cc 3c 9a d6 2c 3d 5d 9d 90 bd
       -0.06373396 0.02491724 0.042196847 -0.07061265
0002a0 85 ac 82 ba 01 5f a2 3c 75 3c 5f 3d cc 1f 35 bd
       -0.0009969628 0.019820692 0.054501016 -0.044219777
0002b0 05 da 21 3d 33 76 83 bd 82 58 68 bc 98 0a c9 3c
       0.03951456 -0.06419029 -0.014181258 0.024541184
0002c0 38 94 dc 3b 30 55 8e bc 99 e4 50 3c 42 26 bc 3c
       0.0067315362 -0.017374605 0.012749814 0.022967461
0002d0 ae 43 23 bd b5 fb 1c bd d9 15 63 bc f7 8e c2 3c
       -0.039859466 -0.038325984 -0.013860189 0.023749812
0002e0 2b 67 4c bc 00 0b f5 bc 68 11 72 3d b2 03 90 3d
       -0.012475769 -0.029912472 0.05909863 0.07031955
0002f0 5a 24 8e 3d d5 64 84 bd 74 c5 28 3a ab 90 dc bc
       0.06940527 -0.06464545 0.0006438114 -0.026924452
000300 44 ba 97 bc e9 a9 83 bd 17 6c 05 bd 0e 05 12 3d
       -0.018521436 -0.06428892 -0.032573786 0.03564935
000310 e0 79 eb bc a8 70 4f 3b 5d f7 0f 3c ff 28 d3 3c
       -0.028744638 0.0031652842 0.008787003 0.025776384
000320 db 7a 4e bd 91 59 60 3d 0d 43 e0 3b 16 65 a4 bc
       -0.050410133 0.054772917 0.0068439306 -0.020067733
000330 60 08 e9 3c 91 c8 2f bd 7a 0c 28 bd 35 06 ac bc
       0.028446376 -0.042915884 -0.041027524 -0.020999053
000340 4a f4 5e 3c 32 ca 2e bd 40 f6 4d 3d 02 ce 11 3d
       0.013608048 -0.042673297 0.05028367 0.035596855
000350 7a 9d cd bb 19 df 2e bc e0 9e 25 bd 0a 9a 3e 3d
       -0.006274876 -0.010673308 -0.040434718 0.04653362
000360 d8 72 ab bc 3a 97 37 bc 19 ac 22 3d f5 2b 4a bd
       -0.020928785 -0.011205489 0.039714906 -0.049358327
000370 eb 43 3b bd 46 e3 b1 bc 5c a3 8a 3c 90 0d 0f 3d
       -0.04571907 -0.021714818 0.016923599 0.034925044
000380 b6 4e 3a bd 9b a2 eb 3c c0 54 37 bd ed 41 45 bd
       -0.04548522 0.02876406 -0.04475856 -0.048158575
000390 a2 f8 c4 bc d4 ad 49 ba 48 a2 81 bd 19 2c 4f 3c
       -0.024044339 -0.0007693444 -0.06329781 0.012644791
0003a0 6d d4 8a bd 17 ef 74 bd aa 65 9c 3c 24 5e 6f bd
       -0.06778798 -0.059798326 0.019091446 -0.05843939
0003b0 40 26 ac bb 55 6d 93 3c ba 1b ba bc 88 b5 2e bd
       -0.005253583 0.01799647 -0.0227183 -0.04265359
0003c0 e0 8a 78 3c 93 ac 7f 3d 44 24 de ba 6b 34 f8 3c
       0.015169829 0.06242044 -0.0016948064 0.030298432
0003d0 c1 67 00 bd 73 5a 20 3d c3 34 c3 bb 32 5f 8b bc
       -0.031348947 0.03914876 -0.0059572174 -0.017013166
0003e0 f9 3c fa 3c db fe ee 3b 6f 1d 15 bd bf 50 a2 bb
       0.030546652 0.0072935647 -0.036405023 -0.0049534733
0003f0 54 75 1f 3d 3d 58 8e 3c 27 cf 52 bd 4e 1c 6e 3d
       0.038930252 0.01737606 -0.051467087 0.058132462

block1.3.bias f4 [32]
000000 70 fc 73 3d 56 41 e3 bc 78 49 35 bd 13 de 07 bd
       0.059566915 -0.027741116 -0.04425952 -0.03317077
000010 b9 cb b5 bc 07 93 61 bd df cb fb 3b 08 f7 9a 3c
       -0.02219187 -0.055071857 0.0076842154 0.018916622
000020 5d f3 96 bc 07 8f 48 3d d9 c1 6b bd c7 6a 62 bc
       -0.018426592 0.048964527 -0.057557914 -0.013819403
000030 6c 9e b6 bc b5 df 2d bd 1e 5c 56 3d e6 f1 47 bd
       -0.022292338 -0.04244967 0.052333944 -0.048814677
000040 87 74 03 bd 90 64 de 3c 07 51 04 3a 02 3d e2 bc
       -0.03209355 0.027147561 0.00050474744 -0.027616981
000050 c9 1c 2f bc 84 04 0d 3d 55 39 b3 3c 33 0b f4 3c
       -0.010688015 0.034428135 0.021877924 0.029790496
000060 fc 99 c2 bc ec 4e 56 bd e7 58 53 3d 4b 79 50 3d
       -0.023755066 -0.05232136 0.051598456 0.050896924
000070 37 25 53 3c 53 b2 24 3c 4c b8 64 3d 81 39 3f bd
       0.012887291 0.010052281 0.05583982 -0.0466857

block1.4.weight f4 [32]
000000 99 96 80 3f ca 4f 86 3f ec ed 81 3f eb 3c 82 3f
       1.0045959 1.04931 1.0150733 1.0174841
000010 5f bc 7c 3f 1c 55 81 3f e3 06 7d 3f b0 3b 76 3f
       0.9872493 1.0104098 0.98838633 0.96184826
000020 33 87 7a 3f 5a 24 7e 3f d7 0e 7c 3f 15 60 7a 3f
       0.9786255 0.9927422 0.98460144 0.9780286
000030 9f 7d 73 3f 5e eb 81 3f 71 e4 84 3f 62 c7 7d 3f
       0.9511356 1.0149953 1.0382215 0.9913236
000040 af 46 82 3f 2c ac 81 3f 1f 52 7c 3f 9e b1 83 3f
       1.0177821 1.0130668 0.98562807 1.028858
000050 35 98 82 3f 97 23 7b 3f ab bc 7c 3f ae 02 79 3f
       1.02027 0.9810118 0.98725384 0.97269714
000060 21 c7 7c 3f 85 87 80 3f 50 d1 7d 3f 4a 9f 7f 3f
       0.98741347 1.0041357 0.9914751 0.9985243
000070 4f a2 84 3f 57 de 7f 3f c7 d0 7c 3f 35 e3 7d 3f
       1.0362033 0.9994864 0.9875607 0.99174815

block1.4.bias f4 [32]
000000 76 82 09 ba 57 94 60 3b 4e e5 50 bc 6b 6e 86 3b
       -0.00052455754 0.0034268105 -0.012749983 0.0041025183
000010 06 68 c8 bc da 1b d8 3a 87 cb 05 bc f6 4c d6 ba
       -0.024463665 0.0016487793 -0.0081662005 -0.001634984
000020 db 6d 74 3b 47 65 0a bc 9d 65 25 bd 22 bf da bc
       0.0037296924 -0.008446998 -0.04038011 -0.026702467
000030 39 03 80 bd 2c e5 78 3a 7d 29 9c 3c 39 ab 9a bc
       -0.06250615 0.00094945985 0.019062752 -0.018880473
000040 96 a7 50 3c 17 71 22 bc 58 a5 ec bc 37 19 2b bc
       0.012735268 -0.009914658 -0.028887436 -0.010443023
000050 98 8a c0 3b 3f 0b 19 bb 90 24 bc bc 77 ce 2b bd
       0.0058758967 -0.002335265 -0.022966653 -0.041944947
000060 cb 8d 39 bd 6b 9a 3d bb 88 f0 ae bc 0a d9 5d ba
       -0.04530124 -0.0028931152 -0.021354929 -0.00084628223
000070 b0 70 aa 3c 7c cb 1f bd c9 55 d5 bc ce 41 59 bb
       0.020805687 -0.039012417 -0.026041882 -0.0033150795

block1.4.running_mean f4 [32]
000000 f4 73 8f be 46 27 9f bd 4a 89 40 3f f8 fd 43 be
       -0.28018153 -0.07771163 0.75209486 -0.1913985
000010 20 33 16 be f7 bf 35 be 73 f4 ec be 6c 49 2a bf
       -0.1466794 -0.1774901 -0.4628025 -0.6651828
000020 f5 54 e0 be 6e 66 62 bf 22 9c 57 bf 10 50 38 3f
       -0.43814817 -0.88437545 -0.84222615 0.71997166
000030 4c b0 9b be f3 1b 9b be a0 69 0a be 07 1f d0 bd
       -0.3040794 -0.3029476 -0.13516855 -0.10162168
000040 53 57 82 bd 2f 5f 88 3e a3 d0 c0 3e 24 72 66 bd
       -0.06364312 0.2663512 0.37659177 -0.056261197
000050 91 91 18 be 67 dc a7 be 0f aa 31 3e 4f 01 69 3f
       -0.14899279 -0.3278534 0.17350028 0.9101762
000060 54 b7 b5 3e 3c 9a e7 bd 0b 98 11 bc a4 b9 10 3f
       0.3549143 -0.11308715 -0.0088863475 0.56533265
000070 fb d0 ca be cf 03 41 3f 49 1c 39 3e 27 ca 82 3d
       -0.39612564 0.75396436 0.18077196 0.06386214

block1.4.running_var f4 [32]
000000 3c 9d 92 3e 45 3f 96 3e 4d 06 d0 3e b2 0c 91 3e
       0.28635585 0.29345146 0.40629807 0.28329998
000010 4f 7a d5 3e eb f2 8f 3e 76 f2 b6 3e cf 16 36 3f
       0.41694877 0.2811502 0.35731858 0.71128553
000020 e6 7e e1 3e f7 41 87 3f c0 41 f6 3e 98 02 e1 3e
       0.44042128 1.0567006 0.48097038 0.4394729
000030 7c 53 b4 3e 0e 28 a5 3e 27 ef 98 3e 11 19 b0 3e
       0.35219944 0.32257122 0.2986996 0.34394124
000040 98 91 c7 3e 8a d9 c2 3e f4 99 c2 3e 17 4a 80 3e
       0.38978267 0.38056594 0.38008082 0.25056526
000050 00 a9 06 3e 81 87 e9 3e d3 e4 1e 3f c4 09 11 3f
       0.13150406 0.45611194 0.6206791 0.56655526
000060 6e ad bf 3e 7b aa 70 3e 43 ee b8 3e 5d fb d3 3e
       0.37437004 0.23502533 0.3611928 0.41402712
000070 0d de 9f 3e 97 e1 fc 3e c1 27 a4 3e 86 f1 23 3f
       0.312241 0.4939086 0.3206158 0.6404041

block2.0.weight f4 [64, 32, 3, 3]
000000 89 6f 26 3d 0d 20 02 3d a2 14 3f 3c 72 24 5d bd
       0.040633712 0.031768847 0.011662634 -0.053989835
000010 6d ed 9a bb e9 ea 35 bc 7b 3c d5 bc 5e 1a 44 3c
       -0.0047280104 -0.01110337 -0.026029816 0.011969177
000020 39 06 96 bd 48 6e ce bc 5f 3c 3d bc 99 6a 06 3d
       -0.07325406 -0.02519907 -0.011550038 0.032816503
000030 1a 85 52 3d de 44 0e 3d 79 e0 0e bd 94 2b 66 3c
       0.051396467 0.034733646 -0.034882043 0.014048476
000040 c7 5e 4b bd 91 3b 4c bd dc 40 f9 3b 82 97 41 bd
       -0.049650934 -0.049861494 0.007606609 -0.04726363
000050 80 2f 74 3b f5 5a c4 3c 3b 05 bd 3c de 47 5c 3d
       0.0037259758 0.023969153 0.023073783 0.053779475
000060 ec 08 18 bc e7 36 08 bd 4c 3f 20 bd 1c b6 91 3d
       -0.009279471 -0.033255484 -0.039122865 0.07114813
000070 c7 49 62 3d 4e 6f 95 3c 91 dd 12 3d c7 2b 7a 3d
       0.05524614 0.01824155 0.035855833 0.061076906
000080 b4 36 31 3d 99 95 b1 bc 91 8c 8d 3d 2e c1 89 3d
       0.04326506 -0.021677779 0.069115765 0.06726299
000090 c3 23 b8 3c b3 89 0c bd cd c5 09 bd 52 75 ec b9
       0.02247799 -0.034311008 -0.033635903 -0.00045100838
0000a0 74 ee 49 bd a4 10 3e bd d4 3d 97 bc 01 d0 13 bd
       -0.049299672 -0.04640259 -0.0184621 -0.03608704
0000b0 38 3c f4 bc 80 e7 32 bd 50 44 39 3d f9 ca 88 3d
       -0.02981387 -0.043677807 0.045231164 0.06679339
0000c0 46 02 c2 3c a6 76 38 3d e1 af 19 b8 b0 fc cf bc
       0.023682725 0.045035027 -3.6641843e-05 -0.025389045
0000d0 86 3b 0f bd fd e2 0d 3d b8 8d a9 bc f5 93 9f bb
       -0.034968875 0.0346403 -0.02069746 -0.004869933
0000e0 2f 90 21 bd 8c c8 42 3c 25 d5 85 bd 3d b3 7b bd
       -0.039444145 0.011888634 -0.06534795 -0.06145023
0000f0 a6 81 ed bc c0 ca 24 bd 30 4b 62 bd 5f 22 33 bd
       -0.028992485 -0.04023242 -0.055247486 -0.04373395
000100 c8 90 61 bd 17 11 1c bd f3 ea b9 bb 34 d4 df bc
       -0.055069715 -0.038102236 -0.00567376 -0.027322866
000110 a8 28 0b 3d 74 92 bb 3c ae 60 2c bc 94 a5 32 3d
       0.03397432 0.022896983 -0.010521097 0.04361494
000120 e2 53 2d 3d 19 86 2e 3d 96 e1 91 bc 03 ca 34 bd
       0.042316325 0.042608354 -0.017807763 -0.044137966
000130 23 34 f1 3c 9b 5b b1 3b c2 43 33 3c ef b3 42 3d
       0.029443806 0.0054125316 0.010941448 0.04753488
000140 8e a9 38 3c 5c a0 0e bd 13 08 8e 3c 73 95 10 3d
       0.011270894 -0.0348209 0.017337834 0.035298776
000150 43 5d 82 bd 00 b7 cd 3c 42 fc 9a 3c 87 05 0a 3d
       -0.063654445 0.025111675 0.018919114 0.033696678
000160 db 4f 6a 3d 7f d9 34 3c e9 97 03 bd e8 3d 60 bd
       0.057205062 0.011038183 -0.032127295 -0.05474654
000170 5a 04 44 3d ee 8e 25 bc db 18 86 bc 7b 77 72 3c
       0.047855712 -0.010104878 -0.016369274 0.014798994
000180 f8 f7 1b bd f3 47 89 3c 8b 71 c4 3c 61 8c c4 ba
       -0.03807828 0.01675794 0.023979923 -0.001499545
000190 d2 9c 04 bd 2f 93 ab 3c 63 c7 55 bc 5d 95 24 bd
       -0.032376118 0.020944206 -0.013048026 -0.040181506
0001a0 27 3e 88 3d 04 90 b5 bc 94 cc ac 3b 6c 6f 11 3d
       0.066524796 -0.022163399 0.005273411 0.03550665
0001b0 77 d1 97 3d e3 c5 1e bd 58 ae 7f 3d d2 f0 6c bd
       0.07412999 -0.03876294 0.062422127 -0.05784685
0001c0 f9 a0 76 3c 72 b2 eb bc 4c 77 65 bd d0 77 0c bd
       0.015053027 -0.028771613 -0.056021973 -0.03429395
0001d0 a8 7e d7 bc c1 dd 0f 3d 6c c0 61 3d f1 a4 46 3c
       -0.026305512 0.03512359 0.05511515 0.012124286
0001e0 b7 e1 d7 3a 33 0d 35 bd 43 70 02 3d cc b6 e8 bc
       0.0016470467 -0.04420204 0.031845342 -0.028407477
0001f0 68 b3 53 bd ce 04 e2 3b 0a a1 59 3d 69 1f 69 3d
       -0.051684767 0.0068975454 0.053132094 0.05691472
000200 64 10 31 bd 4e d6 bf bb 6f 19 f0 bc 87 6d 20 3c
       -0.043228522 -0.0058544045 -0.029309003 0.009791738
000210 f0 d5 24 3c 2e 05 54 3d 33 bd 43 3d 80 6d 0b 3c
       0.010060772 0.051762752 0.047787856 0.008509994
000220 7d 2d b7 3c a1 fc 54 bd b0 61 90 3c 65 dd 83 3d
       0.022360558 -0.05199874 0.017624706 0.06438712
000230 75 96 8d 3d 77 f2 5c bb 15 79 63 3c 9c 83 48 3d
       0.06913463 -0.0033713856 0.013883849 0.048953637
000240 21 a6 1b 3d 1e e6 2f 3d ef da 7e bb d6 98 31 bc
       0.03800023 0.042944066 -0.0038887819 -0.010839662
000250 76 76 56 bc f0 f0 42 3d a9 10 fa bc e8 b3 1c bd
       -0.013089767 0.047593057 -0.030525522 -0.03825751
000260 46 26 00 bd f0 5a 83 bc 5d 57 3a 3b ba 11 5b 3c
       -0.0312865 -0.016034573 0.002843342 0.013370926
000270 b7 60 6a 3c 98 d9 6e 3d c6 a7 03 bd 32 5f 45 3c
       0.014305285 0.058312982 -0.032142423 0.012046622
000280 02 e4 57 bd 80 cf 9c 3c ba da 2f bd 7f c0 f6 3b
       -0.05270768 0.019141912 -0.042933203 0.0075302715
000290 e0 f8 4f bd 09 c1 c0 bc 5a a3 d0 3c ae 3f 8f 3a
       -0.050774455 -0.023529546 0.025468517 0.0010929012
0002a0 8b b4 32 3d 1d 2f d7 bb 0b de 26 3b 20 8e 10 3d
       0.04362921 -0.0065668956 0.0025461938 0.03529179
0002b0 a1 4b 2d 3d c4 e2 18 3d 90 db 2d 3a 41 e7 64 bd
       0.042308453 0.037325636 0.00066321436 -0.055884603
0002c0 68 3b ea bb 76 03 60 bc a0 98 7e bd 4a d4 a0 3c
       -0.007148195 -0.0136727 -0.062157273 0.019632477
0002d0 6f 80 aa 3b 68 bf 84 bc 8e f7 bb bc 97 e1 3d 3c
       0.0052032988 -0.01620455 -0.022945192 0.011589429
0002e0 d7 44 fe bb 6f 6c 60 3c 4b 6c b8 3b 9d 62 05 3d
       -0.007759671 0.013697728 0.005628144 0.032564748
0002f0 6f 5d af bc 9b 27 93 3b 80 30 76 bd 11 f1 17 3d
       -0.021406857 0.0044908053 -0.060104847 0.037095133
000300 79 b0 2a 3c 75 57 6b 3c f8 3f 47 bc cc a5 09 bc
       0.010418051 0.014364113 -0.012161247 -0.008401345
000310 08 cc 53 bd 60 54 dc 3c f8 90 a4 3c b1 b7 85 3a
       -0.05170825 0.026895702 0.020088658 0.0010201839
000320 49 81 6e bc 88 06 0c 3b 6f bf 60 3b 3e 22 12 bd
       -0.014557191 0.0021366198 0.003429379 -0.035677187
000330 d6 1d b2 3b 4c 7f 5d bd 80 f9 40 3d e9 2a 4e 3d
       0.0054356856 -0.054076478 0.04711294 0.05033389
000340 65 76 88 bb be bb 20 3d 58 70 09 3c ad 0e e6 3c
       -0.0041645044 0.039241545 0.008388601 0.02808317
000350 88 1e 85 3c 90 45 24 bd 37 f6 ee 3b d6 0f 4d 3c
       0.01624991 -0.040105402 0.0072925347 0.012515983
000360 a3 6a 23 3d 9c 26 b8 3c 9d bd 2c 3d f8 c8 79 bc
       0.03989662 0.022479348 0.042173017 -0.015245669
000370 21 8f 55 bd bd 07 8a bc bd cf 06 3d 67 6c 29 3c
       -0.05213845 -0.016849393 0.03291296 0.010340787
000380 70 e1 fc bc c4 59 5a bd 19 3a 9b 3c 37 24 03 3d
       -0.030869216 -0.053308263 0.018948602 0.03201696
000390 63 15 fa 3b d0 1e 4d 3c d5 ba 01 bd 6a 02 b9 bb
       0.007631944 0.012519553 -0.031672318 -0.0056460397
0003a0 10 c0 3a 3c 28 51 0b 3d 28 b2 87 bc d5 c8 8d 3b
       0.01139833 0.034012944 -0.016564444 0.0043269196
0003b0 4f 47 3c bd ce 3b 0c 3d 97 12 28 bd aa be 42 3d
       -0.045966443 0.03423672 -0.041033354 0.047545113
0003c0 83 4e 6c bd 61 3b 4e 3b 87 bb 56 bd 8b ec 1b 3d
       -0.057692062 0.0031468498 -0.052424934 0.03806738
0003d0 bd 3f 57 3d 85 0b 6f 3b 33 86 1c bc d6 7f 88 3d
       0.05255102 0.0036475372 -0.00955348 0.06665008
0003e0 4e 8f d0 3d 21 2e 6f 3c 7a 24 08 bc 4d cb c4 3c
       0.10183583 0.0145984 -0.008309478 0.024022723
0003f0 d0 52 53 bd 01 30 2f bd d1 90 a7 3c a4 75 d7 3c
       -0.051592648 -0.04277039 0.020454796 0.026301213

block2.0.bias f4 [64]
000000 35 fd 1a bd 46 a7 b9 bc be 22 fe bc f2 25 5c 3d
       -0.037839133 -0.02266277 -0.031022426 0.053747125
000010 e5 ba f0 bc 26 08 52 bd 42 35 5e bd d0 18 1c bd
       -0.029385993 -0.051277302 -0.05425001 -0.0381096
000020 79 e0 c1 ba 0b ba b1 bc 7d 11 a2 3c 50 46 19 bc
       -0.001479163 -0.021695158 0.01978373 -0.009355143
000030 de 98 eb bb c0 e5 26 3d ab 7d ff 3c 14 7e 29 bd
       -0.007189854 0.04074645 0.031187853 -0.041380003
000040 56 46 f7 bc 2c 53 af 3c 39 a8 45 3d 70 ba bc bb
       -0.030184906 0.021401964 0.048256133 -0.00575953
000050 6c 0e 55 bd 4c b3 96 bb 55 d8 39 bc af b3 20 3d
       -0.052015707 -0.0045990106 -0.0113430815 0.03923386
000060 8d 93 02 3d f8 95 26 bd 8d ce a3 3c c0 1a b7 bb
       0.031878997 -0.040670365 0.019995952 -0.0055879056
000070 6f 31 b1 bc 2c 0b 29 bd f1 f8 9f 3c 3f 70 8f bc
       -0.021630017 -0.04127042 0.019527884 -0.017509578
000080 55 3c 56 3c 54 2f 45 bd 9c 72 de bc 3d 69 8e bc
       0.013075908 -0.04814084 -0.02715426 -0.017384166
000090 71 46 22 bd 43 81 9e 3c 07 f3 44 bd 93 9e 48 bd
       -0.03961796 0.019348746 -0.04808333 -0.048979353
0000a0 1f 76 22 3c c3 82 00 bd f7 52 31 bc d2 75 dd bc
       0.009915858 -0.031374704 -0.010823003 -0.02703372
0000b0 b7 4a 67 bd cc cd 64 3c 72 92 70 3d f5 5a 87 3c
       -0.056467738 0.013965081 0.05873341 0.016522864
0000c0 68 80 36 3d d8 27 ec 3c a8 7d 11 ba 4d 78 b0 bc
       0.04455605 0.028827593 -0.0005550035 -0.021541739
0000d0 47 6f 04 3d e2 ac 1f 3b 7d 38 8d 3c 0a 23 41 3d
       0.032332685 0.002436452 0.01723885 0.047152556
0000e0 7e 48 e7 ba e4 42 6c 3b e4 ba a9 bc 8d f0 d7 3b
       -0.0017645506 0.0036050612 -0.020719 0.006589955
0000f0 94 4c e1 bc 3e 9c f8 ba 9e 71 26 bd 5d e0 36 3d
       -0.027502336 -0.0018967462 -0.040635698 0.044647563

block2.1.weight f4 [64]
000000 96 9e 80 3f 47 78 80 3f 3f b0 82 3f fe 7c 82 3f
       1.0048397 1.0036706 1.0210036 1.0194395
000010 1d 4e 7f 3f f0 6d 81 3f 90 76 7b 3f cd 01 80 3f
       0.99728566 1.0111675 0.98227787 1.000055
000020 c1 71 7e 3f 95 f5 7d 3f 5a a1 79 3f 0b cf 7c 3f
       0.99392325 0.99202853 0.9751183 0.9875342
000030 41 a7 80 3f fc 5b 7d 3f 8e a9 78 3f 28 46 83 3f
       1.0051042 0.9896848 0.9713372 1.0255785
000040 89 34 7e 3f 84 be 80 3f d5 d9 82 3f 85 ea 80 3f
       0.9929891 1.0058141 1.0222727 1.007157
000050 dd 0b 82 3f af 69 7a 3f 4f 02 7a 3f 3f f4 7d 3f
       1.015987 0.9781751 0.9765977 0.99200815
000060 4c 22 7e 3f 00 6f 81 3f c7 44 7b 3f 10 a0 82 3f
       0.9927108 1.0112 0.9815182 1.0205097
000070 40 ae 7d 3f 3c aa 7f 3f 16 02 7d 3f 7e 34 7b 3f
       0.9909401 0.9986913 0.9883131 0.9812697
000080 8f 89 81 3f c1 c7 7a 3f a8 ee 81 3f 6b da 83 3f
       1.0120105 0.9796105 1.0150957 1.0301031
000090 1a 68 80 3f b6 da 7e 3f ab 02 79 3f c3 28 74 3f
       1.0031769 0.99552476 0.97269696 0.953747
0000a0 f8 a9 7e 3f ac c8 7e 3f 8f c7 7c 3f d6 d6 80 3f
       0.994781 0.9952495 0.98742 1.0065563
0000b0 2e 64 79 3f b9 86 79 3f 8b d3 81 3f c8 43 83 3f
       0.9741849 0.97471195 1.0142683 1.025506
0000c0 1f b3 82 3f 15 48 7f 3f f7 49 77 3f 19 82 83 3f
       1.0210913 0.99719363 0.96597236 1.0274078
0000d0 77 81 82 3f 11 d4 80 3f ee 4c 81 3f 6d 81 7e 3f
       1.019576 1.0064718 1.0101602 0.9941624
0000e0 51 5f 7f 3f e4 2c 82 3f 63 85 76 3f 5b fe 81 3f
       0.99754816 1.016995 0.9629728 1.0155748
0000f0 c4 51 7f 3f 27 74 76 3f dd 83 81 3f b1 a6 78 3f
       0.9973414 0.96270984 1.0118366 0.9712935

block2.1.bias f4 [64]
000000 eb f8 34 bc 04 a1 1d bd e9 1c ec 3a 03 ef 3c bd
       -0.011045675 -0.038483635 0.0018013987 -0.046126377
000010 73 9c f3 3b 2b 63 52 bc ef 2e 27 bd 82 06 8b bc
       0.0074344217 -0.012841026 -0.040816244 -0.016970877
000020 cf d6 c0 bc df 7e c0 bc 80 b1 04 bd e6 f0 b0 bc
       -0.023539929 -0.023497997 -0.03239584 -0.021599244
000030 59 a2 09 bd ab 73 63 bd 8b ec ca bc b3 5e 29 bd
       -0.033602092 -0.05553023 -0.024770996 -0.041350078
000040 4e 30 df bc 4e 3d 4c bd 43 58 03 bc 0a 78 99 bc
       -0.027244713 -0.049863152 -0.008016649 -0.018733997
000050 9f e4 60 bd 2f 84 4b bc a4 f1 0b bd ed 01 8a bc
       -0.05490553 -0.012421652 -0.034165993 -0.016846621
000060 40 4d 0a bd 45 2d e3 bc 14 91 b4 bc bd 7e 2a bb
       -0.033765078 -0.027731547 -0.022041835 -0.0026015483
000070 3c fa 36 bd 07 29 74 bc 0e fc 2d bd 4b a9 a7 bc
       -0.044672236 -0.01490236 -0.042476706 -0.020466467
000080 3f 9c f0 bc 51 81 0b bd 23 74 35 bd 04 92 e8 bc
       -0.029371379 -0.034058873 -0.04430021 -0.028389938
000090 24 c5 12 bd 0f 89 79 bd 2b d8 02 bd e9 63 72 bd
       -0.03583254 -0.060921725 -0.031944435 -0.059177313
0000a0 2f 91 1d bd c9 58 26 bd 54 8d 4b bd ae 9f 48 3b
       -0.038468536 -0.040612016 -0.049695328 0.0030612755
0000b0 dd 94 c7 bc 42 9d 3b bd 5d e7 9b bc c6 b0 e4 bb
       -0.024362976 -0.04580427 -0.019031221 -0.006979081
0000c0 d3 4d 54 bd 15 aa af bc 22 f9 6f bd f7 1b f2 bc
       -0.05183203 -0.021443406 -0.0585872 -0.02955435
0000d0 8b 96 ac bb 86 6a f3 bc 6b 86 0f bd 18 a3 10 bd
       -0.0052669696 -0.02971388 -0.0350403 -0.03531179
0000e0 22 eb 23 bc b1 c9 b9 bc b2 3c 17 bd 4c e2 cb bc
       -0.0100047905 -0.022679182 -0.036923118 -0.02488818
0000f0 cd 98 4f bc af 2c c6 bc 56 dc 9f bc 1d fd 05 bd
       -0.012670708 -0.024191229 -0.019514244 -0.03271209

block2.1.running_mean f4 [64]
000000 82 5e a6 3e f2 1e f0 3e a2 aa 38 be 94 87 a0 3e
       0.3249398 0.4689861 -0.18033841 0.31353438
000010 7b 1d ad bf 41 41 46 bf 17 ae e7 3e 08 19 40 bf
       -1.3524622 -0.7744332 0.45250008 -0.75038195
000020 8f 38 16 3f a6 a6 70 bf b6 54 45 3f 39 44 72 3e
       0.5868005 -0.94004285 0.77082384 0.23658837
000030 8f 49 50 bf 49 ad ae bd 6a 98 ec 3e 98 5f fa 3d
       -0.8136224 -0.08529145 0.46210033 0.12225264
000040 f2 b0 42 bf ff 0e d1 3d b3 25 d1 be 7f 56 83 bf
       -0.7605125 0.102079384 -0.40849075 -1.0260772
000050 13 0b ab bf 7f 1d 4f 3d 8e 48 90 be 4f 62 c2 3e
       -1.3362755 0.05056524 -0.28180355 0.37965629
000060 10 b4 bd be 11 ab 35 bf 4b 3e ba bb 67 f6 23 3f
       -0.3705144 -0.7096415 -0.0056836954 0.64047855
000070 a7 f8 5b bf 21 a3 77 3f 7e 43 88 be 1b 8a 52 bf
       -0.8592629 0.9673329 -0.26613992 -0.8224198
000080 56 5f 57 bf 92 a2 7a 3d 85 5b 4d be d4 3c 81 bf
       -0.84129846 0.061190195 -0.20054443 -1.0096688
000090 2d ad fd 3e ec 15 e7 3e 3f 4d d3 bd 9b a5 42 3e
       0.49546185 0.45133913 -0.10317468 0.19008486
0000a0 4f 47 78 be 36 f5 65 be 7b 47 7d 3e b6 ea 80 bf
       -0.24245952 -0.22456822 0.24734299 -1.0071628
0000b0 da 4c 39 be 56 bb 99 bd 5d 14 60 bf 98 6f a4 bf
       -0.18095723 -0.075064346 -0.8753107 -1.2846556
0000c0 8a 67 da be e3 ed 17 bf bf 35 11 3f e5 21 ad be
       -0.4265712 -0.5934736 0.56722635 -0.33814922
0000d0 da 91 cd bd 02 03 ff 3e ee b3 99 bf a1 7c b9 be
       -0.100375846 0.49806982 -1.2008035 -0.36227897
0000e0 23 24 c0 be ca 90 fb bc 6b f1 56 bd 3a a3 09 bf
       -0.3752757 -0.03070869 -0.052476328 -0.5376469
0000f0 51 16 fc 3e dc c3 e9 3e 03 91 be bd b6 ee 88 3e
       0.49235776 0.4565724 -0.093050025 0.26744622

block2.1.running_var f4 [64]
000000 28 4d 29 3f 42 0e 91 3e 00 42 96 3e 1f ab be 3e
       0.66133356 0.2833119 0.2934723 0.3723993
000010 62 96 21 3f 64 0d d6 3e 6e 01 84 3e 42 50 23 3f
       0.6312009 0.4180709 0.2578234 0.6379434
000020 a8 fe e0 3e aa 0f 48 3f df 72 12 3f 8c 95 77 3e
       0.43944287 0.781489 0.5720653 0.24178141
000030 3f 8b ca 3e 0e a3 15 3e a3 a3 c8 3e 9c ec 8a 3e
       0.3955936 0.14612982 0.39187345 0.27133644
000040 01 1a e0 3e 11 f2 02 3f f2 5c 9c 3e 7c da 68 3f
       0.4376984 0.51150614 0.30539662 0.9095838
000050 32 31 fd 3e d3 40 7b 3e 2a 3c 5a 3e 6e fa 03 3f
       0.49451596 0.24536447 0.21312013 0.51554
000060 6b 41 b0 3e 70 ad 82 3e 50 24 1e 3f 3a 13 11 3f
       0.3442491 0.25522947 0.6177416 0.5666996
000070 52 c6 12 3f b6 65 f0 3e 46 06 f3 3e 05 9b ea 3e
       0.5733386 0.469526 0.47465724 0.45821396
000080 95 c5 27 3f 8d 85 be 3e 7f 6f d4 3e 4f 51 0f 3f
       0.6553586 0.37211266 0.41491315 0.5598344
000090 fc c6 9c 3e 20 5c 92 3e 03 78 c3 3e 36 40 9f 3e
       0.30620563 0.2858591 0.381775 0.31103677
0000a0 06 18 03 3f 32 75 7f 3e 2c f2 10 3f 26 8f 1a 3f
       0.5120853 0.2494705 0.56619525 0.6037468
0000b0 9b 7b 36 3e cd d9 a4 3e 48 43 78 3f 39 fb f6 3e
       0.17820589 0.3219742 0.96977663 0.48238543
0000c0 bb eb f0 3e 46 1c 2a 3f f9 17 b7 3e 07 59 ef 3e
       0.47054848 0.6644939 0.35760477 0.4674761
0000d0 c7 fd a4 3e 03 d9 d0 3e f4 76 1e 3f 0c 13 18 3f
       0.32224867 0.40790567 0.6190026 0.59404063
0000e0 d7 76 06 3f 18 52 9d 3e c6 70 4c 3e ff 74 d7 3e
       0.52525085 0.30726695 0.19964895 0.42081448
0000f0 39 21 b1 3e 2d 9c b7 3e 6a 28 7d 3e c8 7f 85 3e
       0.3459566 0.3586134 0.24722448 0.26074052

block2.3.weight f4 [64, 64, 3, 3]
000000 26 82 d6 bc 73 1e f4 bc 12 b8 c7 3b 72 ae f8 3b
       -0.026185106 -0.029799676 0.006094941 0.007589155
000010 1b f2 17 bd 96 78 39 bc ef a3 cf 3c 68 92 0c bc
       -0.037096124 -0.011320254 0.025346724 -0.008579828
000020 34 99 88 bc 0b f6 13 bd 2a 64 13 3d 73 3a d6 3c
       -0.016674615 -0.036123317 0.035984196 0.026150918
000030 f9 ee 3e bc a7 ee b8 bb 81 6b 8a 3c 6d 79 b9 bc
       -0.011653655 -0.005643684 0.016896965 -0.022640908
000040 21 b3 bd bc e8 f5 b1 bc e7 49 a8 3c ff 44 8d bb
       -0.023156704 -0.021723703 0.020543052 -0.0043112035
000050 fa a7 8b bb 71 80 43 3d 99 0f c0 3c 95 38 14 bc
       -0.0042619677 0.047729913 0.023444938 -0.009046693
000060 41 34 1c 3c f0 25 a9 bc a0 1c bc 3b 91 51 96 3c
       0.009533943 -0.020647973 0.005740717 0.01834944
000070 07 83 b2 3c 97 60 dc 3c 15 6a 4d 3d 0e 66 2c 3d
       0.021790994 0.026901526 0.050149996 0.042089514
000080 4a 56 2e bc 11 79 5d 3b 3d 2b 8b 3c 92 c7 36 bd
       -0.01064069 0.0033794085 0.016988391 -0.04462392
000090 f8 77 dd 3b 22 02 2c bd 67 60 6c 3c 53 18 07 3d
       0.006758686 -0.04199422 0.014427281 0.03298218
0000a0 ff a9 35 bc fe 82 ce bb 9b d7 c1 bc c4 fb 0a bc
       -0.0110878935 -0.0063022366 -0.023662379 -0.008482877
0000b0 52 7c 3b 3c 03 7f bb bc 0b 24 d8 bc f2 09 86 3c
       0.0114432145 -0.022887712 -0.026384374 0.016362164
0000c0 c4 37 f3 3b d4 a7 01 3d cc e6 98 3c 8d f1 b5 3b
       0.0074224193 0.031654194 0.01866474 0.0055524767
0000d0 d8 a4 e8 bb 9d 54 9b 3c d8 eb d2 3c 15 55 88 3c
       -0.007099729 0.018961245 0.025747225 0.016642133
0000e0 d7 22 a6 bc de ce 4b 3a e8 53 21 3b 1a ca 04 3c
       -0.020280285 0.0007774661 0.0024616662 0.008104825
0000f0 36 9c 1a 3d f4 cc dd bc af 04 12 bd 93 f7 41 3c
       0.03774663 -0.027075268 -0.035648998 0.011838811
000100 24 fa 28 bd c0 db 21 bc ac a1 29 bd 33 6c 88 bc
       -0.041254178 -0.009879053 -0.041413948 -0.016653156
000110 1e 0f f8 bb 34 5a 70 3b db da 3d bc 2b 83 d0 bc
       -0.0075701615 0.003667486 -0.011587824 -0.02545317
000120 02 12 48 bc 23 81 b1 ba 50 8b a0 3b 38 24 eb bc
       -0.012211325 -0.0013542514 0.00489942 -0.028703794
000130 ce 4a 1e bd 6c 7f 40 3c c5 95 2c bc ab c8 80 3c
       -0.038645558 0.01174913 -0.010533755 0.015720686
000140 aa 73 ea 38 92 db ba bc 2b 0b c9 bc 2c b6 cf bc
       0.000111795336 -0.022809777 -0.024541458 -0.025355421
000150 48 22 e2 bb 43 9a df 3c 67 20 26 bd ca f4 1b 3c
       -0.0069010593 0.027295237 -0.040558245 0.0095188115
000160 aa 6c 45 bd da da db bc f8 1a ec 3c ba fa e4 bc
       -0.048199333 -0.026837755 0.028821453 -0.027951587
000170 b7 3f 7b 3a 25 03 0f bd f2 f9 0e 3d 63 63 dd 3c
       0.00095843844 -0.03491511 0.034906335 0.02702493
000180 ec ef 07 bd 32 25 07 3d b7 a7 1a bd 76 00 5d bc
       -0.03318779 0.032994457 -0.0377576 -0.013488879
000190 9d 15 0a 3d fc e0 90 bc 13 db 75 3d 87 42 ce 3b
       0.03371202 -0.017685406 0.06002338 0.006294552
0001a0 4c 88 f5 3c 25 9e 8f 3c ed 27 0a 3c c5 88 99 3c
       0.029972218 0.017531464 0.008432371 0.018741975
0001b0 fc 50 47 bc 3c 11 c0 bb 8a 58 2e 3c 1f c2 5a bd
       -0.012165304 -0.0058614295 0.010641227 -0.053407785
0001c0 ac 8e 06 bc 86 37 1a bd 1a 41 87 3c 55 13 84 bc
       -0.008212727 -0.037650608 0.016510535 -0.0161225
0001d0 82 90 38 bd cd 53 cd bc 3e ec 0b bc 9e 6a 95 3c
       -0.04505969 -0.025064373 -0.008540211 0.018239316
0001e0 4a 42 a0 bc b6 d9 4d 3d 73 59 c8 bb d2 bf fd bc
       -0.01956286 0.050256453 -0.006114179 -0.030975256
0001f0 cc cb 88 3c 80 e5 f9 3c bc 4c 1f bc 78 85 cf 3c
       0.01669874 0.030504942 -0.009722885 0.025332198
000200 ca 24 a3 bc ea 4c d6 bc a5 98 6b 3c 62 7e 5c bb
       -0.019915003 -0.026159722 0.014379655 -0.0033644666
000210 3c 85 ba bc e6 90 40 bb ba af e2 3c 23 c8 f3 bb
       -0.02276861 -0.0029383241 0.027671684 -0.0074396296
000220 3b 51 86 3c 73 8c b1 bc 0b 81 07 3b 9b 7c dd 3c
       0.016396156 -0.021673417 0.002067628 0.027036956
000230 5d fd 33 3d 5f e2 92 3b 7b 7f 78 bb 13 14 db 3c
       0.043942798 0.004482552 -0.003791778 0.02674297
000240 da bb 3d bc 5c 22 0c 3d 8c d6 35 3d 33 ad 15 bc
       -0.011580432 0.034212455 0.04439406 -0.009135532
000250 59 d9 3c bd 30 25 1a 3d f7 f4 38 bd bb b2 bf 39
       -0.046105716 0.03763312 -0.04515549 0.00036563523
000260 d7 36 1e 3d b9 38 cf 3b bf f5 ff bb dc 03 02 3d
       0.038626518 0.0063239005 -0.0078112776 0.03174196
000270 ed 68 e6 bb ff 89 99 3c 12 d8 32 3b 3a 72 b2 bc
       -0.007031551 0.01874256 0.0027289432 -0.021782983
000280 32 d5 f7 3c 8d 85 b4 3c d1 59 0c 3d 89 2e ef bc
       0.030253027 0.022036338 0.034265343 -0.029196994
000290 7b 38 70 bc 62 80 5e 3d 75 76 05 3d 11 ed b2 3b
       -0.0146619035 0.054321654 0.032583673 0.0054603894
0002a0 fa b9 5e 3b 53 e1 e3 ba 59 1c 97 3c bb 3c 85 bc
       0.0033985362 -0.0017385877 0.018446134 -0.01626431
0002b0 14 b2 c3 bc d0 d2 1c bd b1 9c 0a bd 5c 29 24 bd
       -0.023888625 -0.038286984 -0.03384084 -0.040078506
0002c0 8d 00 98 bb 45 3d 5f 3c 1a 41 58 3c 60 1e 86 3c
       -0.0046387375 0.013625448 0.013199115 0.016371906
0002d0 fb 69 b5 bc 0e 3d 44 3d 0d 14 62 3d 13 fb 8a bb
       -0.022145262 0.04790979 0.055194903 -0.004241356
0002e0 9a 4f 0d 3d 1b 16 20 3d 21 46 d2 bc fa ff 08 3d
       0.034499742 0.03908358 -0.025668206 0.033447243
0002f0 14 10 03 3c b6 89 0d 3c 1e 94 e9 bb de 2b 93 bc
       0.007999439 0.00863879 -0.0071282526 -0.017965253
000300 07 d3 36 3d 6b 00 d8 bc 9d 92 19 3d 85 2f a9 bc
       0.044634845 -0.026367387 0.037493337 -0.020652542
000310 9f 37 0b 3d 23 3e 53 3c c9 2d be 3c 75 10 30 3d
       0.03398859 0.0128932325 0.023215191 0.042984445
000320 ed 69 fb 3c c7 7c 34 3d 87 02 12 3d 59 7e 3f 3d
       0.030690158 0.04406431 0.03564694 0.046751354
000330 e0 cf 95 3c bf 09 cf bc f9 90 b3 3c 1e ab d1 bc
       0.0182876 -0.025273202 0.021919714 -0.02559429
000340 96 83 2b bc cb 34 3e 3b 70 17 2c bd 24 4e 3e bc
       -0.010468384 0.0029023166 -0.04201454 -0.01161531
000350 8b 83 de bc 6b d4 1f bd 97 da 80 bb 86 ec ac 3b
       -0.027162334 -0.039020937 -0.003932308 0.005277219
000360 d0 6a 33 bc c7 9a 63 bc e2 a1 bb 39 15 01 04 3d
       -0.010950759 -0.013891882 0.00035788032 0.032227594
000370 68 c8 56 3c 0f 12 e3 3c 83 d5 b7 3a d8 36 e7 3b
       0.013109304 0.027718572 0.0014025423 0.0070560984
000380 c1 fe 21 bd e8 ad c0 3c 2c 00 9a 3c 54 89 45 bc
       -0.039549593 0.023520425 0.01879891 -0.012056667
000390 4b 40 be 3c 6d 8a 23 3d 50 c2 04 3d 33 85 6a bc
       0.023224017 0.039926935 0.032411873 -0.014313984
0003a0 75 e9 78 bb 29 19 c6 3a 8e f4 8c 3b 54 6b 2b bd
       -0.0037980948 0.00151137 0.004301614 -0.041850403
0003b0 7e d3 dc bb 65 0f 85 3c 70 f5 3f bb 7a 52 71 3b
       -0.006739079 0.016242692 -0.002929058 0.0036822842
0003c0 10 59 a3 3c 3c f9 92 bc 74 6d 32 3c 3c 59 03 3d
       0.01993993 -0.01794111 0.0108903535 0.032067522
0003d0 2d 4f e7 bc bb 73 5c 3b 06 a9 3a bd f5 b3 61 bb
       -0.028235996 0.0033638317 -0.04557135 -0.0034439538
0003e0 7a 12 3f 3b 5a f8 e8 3c c1 c3 2f bd 0c c9 36 3d
       0.00291553 0.028438736 -0.042911295 0.044625327
0003f0 84 95 de 3b d5 97 c0 3c 59 05 20 bd 44 b1 0c bd
       0.006792726 0.0235099 -0.0390676 -0.03434874

block2.3.bias f4 [64]
000000 d9 01 1b bc 4f 3a a4 3c 9a 88 e8 ba 7b 1d 5a bb
       -0.00946089 0.020047335 -0.0017740906 -0.0033281732
000010 ad df 2b bb 39 ed b9 3c ff 3d 1c bd e2 3c 76 bc
       -0.002622585 0.022696124 -0.03814506 -0.015029164
000020 dd 06 5c bc 3d 57 8d bc f1 a7 82 3c 08 2d 11 bd
       -0.013429371 -0.017253513 0.015949221 -0.035443336
000030 a9 9a 2a bd 74 26 c8 3c 55 c1 1a 3d 8c 05 04 bd
       -0.0416514 0.024432398 0.037782032 -0.032231852
000040 ee d1 a9 3a b7 06 08 3d 9a 1b 25 3d fb 28 9a 3c
       0.0012956241 0.03320953 0.040309526 0.01881837
000050 b1 a5 3e 3c 26 22 d6 bc e3 48 51 3c 8f 70 0c 3d
       0.011636184 -0.02613933 0.012773725 0.03428703
000060 83 96 12 3d 33 63 b3 bc 8c 44 c7 bc dd ef 84 bb
       0.03578807 -0.021897888 -0.024324678 -0.0040569142
000070 09 32 05 3d 64 b4 d9 bc 14 0c cf 3c 61 e0 53 bc
       0.03251842 -0.026575275 0.025274314 -0.012931914
000080 8c 18 1a bc 26 75 f3 3b 3d 46 0b 3d 8d a2 0a 3d
       -0.0094052665 0.0074297367 0.03400253 0.033846427
000090 32 1a f6 3c 11 9a 31 3c 6f 0c 37 bc f1 ba dc bb
       0.030041788 0.010839955 -0.011172398 -0.0067361523
0000a0 92 af 91 bc 48 66 93 3c 24 5f e4 3c 61 85 e7 bc
       -0.017783914 0.017993107 0.027877398 -0.028261842
0000b0 14 31 1b 3d de 74 9b bc 4d a8 95 3c 7f 23 5f bc
       0.0378886 -0.018976625 0.018268729 -0.013619303
0000c0 5f 98 ed ba 93 8b d5 3c 87 0b 66 bb 83 99 0b 3b
       -0.0018127075 0.02606753 -0.0035102086 0.0021301217
0000d0 f5 8a c9 3b 81 51 23 3d 70 c8 20 bd 1b 9d b7 3b
       0.006150598 0.03987265 -0.039253652 0.005603445
0000e0 f8 fe 77 bb 44 ed 01 bd a1 88 cb bc 33 26 0f bd
       -0.0037841182 -0.031720415 -0.024845423 -0.03494854
0000f0 1d 65 7c 3c 9a 12 11 bc 59 cb e2 bc bb 18 be 3b
       0.015404967 -0.008854533 -0.027684854 0.005801288

block2.4.weight f4 [64]
000000 e1 86 72 3f 2d 99 7a 3f e3 ca 82 3f 0f cc 7a 3f
       0.9473706 0.9788998 1.0218166 0.9796762
000010 06 d2 7f 3f f6 53 79 3f 78 f3 7e 3f 47 9f 7c 3f
       0.99929845 0.9739374 0.99590254 0.9868054
000020 6c e0 7f 3f c2 5a 87 3f c6 c4 7f 3f 0d e1 7f 3f
       0.99951816 1.0574572 0.9990963 0.99952775
000030 f2 0f 77 3f b6 83 7f 3f 8d 05 7c 3f 9a 0f 82 3f
       0.96508706 0.9981035 0.9844597 1.0161011
000040 8d 98 82 3f 9f 5f 82 3f 13 29 79 3f 7b 31 83 3f
       1.0202805 1.0185431 0.973283 1.0249475
000050 d0 7e 7c 3f 18 9e 81 3f 60 87 7a 3f bb 2f 7b 3f
       0.98631 1.0126371 0.97862816 0.98119706
000060 ce 99 79 3f b2 41 7f 3f d7 12 7a 3f 3a 7d 79 3f
       0.9750031 0.9970962 0.97685 0.97456706
000070 15 c1 79 3f 8d fd 81 3f de ce 7f 3f 9c 74 7d 3f
       0.97560245 1.0155503 0.9992503 0.99006057
000080 15 af 7d 3f 32 8f 81 3f 8c ba 83 3f 2d 69 80 3f
       0.9909528 1.0121825 1.0291305 1.0032097
000090 8d 3b 83 3f f8 a7 7e 3f bc a9 7f 3f 0d a7 79 3f
       1.0252548 0.9947505 0.9986837 0.97520524
0000a0 e6 56 81 3f ec 20 80 3f c6 64 80 3f 06 a1 7c 3f
       1.0104644 1.0010047 1.0030754 0.986832
0000b0 23 15 7d 3f f2 e6 7a 3f cc 76 80 3f db 8e 75 3f
       0.9886038 0.98008645 1.0036254 0.95921105
0000c0 3a 3e 79 3f f2 a8 81 3f b4 27 80 3f 6f 2a 7a 3f
       0.97360575 1.0129683 1.0012116 0.97721
0000d0 e6 28 79 3f ee 57 82 3f e8 05 7d 3f d9 ad 78 3f
       0.9732803 1.0183084 0.9883714 0.9714027
0000e0 c4 17 79 3f 06 87 84 3f 74 86 83 3f 77 64 84 3f
       0.9730189 1.0353706 1.0275407 1.034316
0000f0 b6 a1 7a 3f 17 df 83 3f 87 63 7e 3f af 35 80 3f
       0.97903 1.0302457 0.99370617 1.0016383
